creditapp/app/src/main/assets/credit_model.tflite (tflite, 38380 bytes, 3 tensors)

sequential_1/dense_3/MatMul1 f4 [128, 7]
000000 30 86 0a bc 97 60 3a be 2c b7 1d 3d 37 08 25 3e
       -0.008454844 -0.18200909 0.038504764 0.16116415
000010 94 f9 60 3d 0c cb 5e 3d b7 fe 04 3e 01 80 52 be
       0.054925516 0.05439286 0.12987791 -0.20556642
000020 34 e5 47 be a0 69 0a be 44 d2 05 bd 67 08 1d 3e
       -0.19521028 -0.13516855 -0.032671228 0.15335236
000030 7f 1a 00 3e ca bc c9 3d 86 13 86 3d e2 32 f8 3d
       0.12510107 0.09850462 0.065466926 0.1211908
000040 32 0e 2d be ba ea c1 bd e1 30 00 3e 26 eb 04 be
       -0.16899946 -0.09468599 0.12518646 -0.12980327
000050 c5 1f ed bd 6c d6 06 bd 98 25 8a bd 79 6d 4c 3e
       -0.11578325 -0.032919332 -0.06745452 0.19963636
000060 a2 08 a5 bd 9c d5 82 bd c3 8a 24 3e c3 e8 46 be
       -0.08058287 -0.06388399 0.16068558 -0.19424729
000070 0b d6 1c be 36 99 f0 bd 54 b1 a2 bd 00 26 9e bb
       -0.15316026 -0.11747973 -0.07943979 -0.0048263073
000080 ff 4c 1c 3e ca 6f 95 bd 7a f9 d9 3d 25 01 f5 bd
       0.15263747 -0.07296713 0.10643287 -0.11963109
000090 01 ac 2c be 55 19 3a 3e 65 ea 22 3e 38 c3 6c bd
       -0.1686249 0.18173726 0.15909727 -0.057803363
0000a0 0f f4 b7 bd af 4f 41 3e 12 62 eb 3d 4c f5 1a 3d
       -0.08982097 0.18878053 0.11493315 0.03783159
0000b0 89 ad 0b 3e 60 34 44 bc d4 ca fa bd 30 9b 15 be
       0.13640417 -0.011975378 -0.12245718 -0.1460998
0000c0 4d 70 0d 3e 09 b2 2d 3e a0 d6 02 bc 07 66 e5 bd
       0.1381237 0.16962446 -0.007985741 -0.11201101
0000d0 9e 91 1e be 83 07 37 3e 01 ff 2e 3e 00 df c5 bb
       -0.15485236 0.17873959 0.17089464 -0.0060385466
0000e0 c9 df 48 3e 13 dd 02 3e 01 c0 53 3e 0a 44 d3 3d
       0.19616617 0.12779646 0.20678712 0.10315712
0000f0 d0 04 03 bc 41 ca f0 bd c0 ff 01 bb 82 ef a9 3d
       -0.007996753 -0.11757327 -0.0019836277 0.082976356
000100 2c 15 39 be 12 8e 9b 3d 20 60 c2 3c 80 92 d6 3b
       -0.18074483 0.07595457 0.023727477 0.006548226
000110 79 a9 11 be d9 82 3c 3e 2c b5 02 bd d5 69 50 3e
       -0.14224805 0.1840929 -0.03191106 0.20352872
000120 60 56 c3 bc 3a f5 47 be 96 56 a1 bd 2a 2b ec 3d
       -0.023844898 -0.1952714 -0.07877843 0.115316704
000130 78 6d ae 3c a7 bd 1f be 41 39 4c be 43 00 03 3e
       0.021292433 -0.1559969 -0.19943716 0.12793069
000140 73 1f 1b 3e 19 32 28 3e 7c d2 5d 3d ac b1 24 be
       0.15148716 0.1642536 0.05415581 -0.16083401
000150 7a 51 f6 3d 1a 3a c2 3d 82 04 50 be b9 c3 0c be
       0.12027259 0.09483738 -0.2031422 -0.13746537
000160 30 5a 2c bc 2c 45 01 be 12 34 19 be 80 4d d0 3c
       -0.010519549 -0.12624043 -0.1496127 0.02542758
000170 a4 49 5f 3d eb 75 0d 3e 1e 64 87 3d b0 d6 37 bc
       0.05451359 0.13814513 0.06610893 -0.011220619
000180 36 c3 a1 3d 22 df 07 be 34 e8 01 3d a0 33 3c bc
       0.07898562 -0.13268712 0.031715587 -0.011486918
000190 dd 8b 18 3e 18 be 98 bc 2c 04 d8 bd fc d4 c3 bd
       0.14897104 -0.018645331 -0.10547671 -0.09562108
0001a0 20 a7 13 bd 5a 08 f0 bd bd f1 52 3e bb f2 49 3e
       -0.036048055 -0.11720343 0.20600028 0.197215
0001b0 3c 96 30 3d 1f 8a f7 bd f8 0e aa bd ad 56 cd bd
       0.043112025 -0.120868914 -0.08303636 -0.10026298
0001c0 fe 25 23 be 34 6a 48 3d f8 32 3d bd 1e 98 a4 3d
       -0.15932462 0.04892941 -0.046191186 0.080368266
0001d0 94 f1 46 be 46 57 04 be cc eb 51 bd 96 22 f3 3d
       -0.19428092 -0.12923917 -0.051250264 0.11871831
0001e0 0e 50 18 be 4f cf 42 3e 40 65 b2 3b f3 65 45 be
       -0.14874288 0.19024394 0.005444199 -0.19277172
0001f0 9b ed 2c 3e d0 5c 5e 3c f2 5e d1 bd 3c 24 21 3d
       0.16887514 0.013571933 -0.102231875 0.039341196
000200 28 03 db bd f2 ac ad 3d 8b 48 d7 bd 79 f9 06 3e
       -0.106939614 0.08480252 -0.10511883 0.13181104
000210 66 fa 80 bd 1d 5f 29 3e 25 41 2c be a6 05 c8 3d
       -0.0629776 0.16540189 -0.16821726 0.09766702
000220 39 c5 4f 3e 7b 04 d1 bd 90 2b 7d bd 1a fd ad 3d
       0.20290078 -0.10205933 -0.061809123 0.08495541
000230 f9 e3 1e 3e ac f2 3f be ad b2 20 3e 17 cb 01 3e
       0.15516652 -0.18744916 0.1569316 0.12675129
000240 26 82 cf 3d f0 b3 10 be d2 48 d8 3d c7 7c 4f 3e
       0.10132246 -0.1413114 0.10560764 0.20262443
000250 28 83 d6 bc c9 0c 2a 3e 3c 05 3d 3d 42 93 f4 3d
       -0.026185587 0.1660644 0.04614757 0.1194215
000260 e5 67 31 be 3a da 9a 3d f8 68 40 be 3b 89 2a 3e
       -0.17324789 0.07561155 -0.18790042 0.16653912
000270 95 13 2b 3e 5c a7 b8 bd 00 70 41 3c f2 2c b1 3d
       0.16706689 -0.09016296 0.011806488 0.08651151
000280 4a ec ad bd 6d 46 1b 3e 86 e5 fa bd 2a 27 87 bd
       -0.08492334 0.15163584 -0.12250809 -0.06599267
000290 4c b0 27 3d 5f 4f 38 3e e8 16 ce bc 50 bf 34 bc
       0.040939614 0.17999028 -0.025157407 -0.011031941
0002a0 bf 92 28 3e c8 40 d4 bc 26 17 b3 3d 0c 5b 91 bd
       0.16462229 -0.025909796 0.087446496 -0.07097444
0002b0 be 79 db 3d c2 41 ef 3d 8e f1 de 3d 8c 5c 51 bd
       0.1071658 0.11682464 0.10885917 -0.05111365
0002c0 76 87 1a be 4a 42 54 be 5c 06 62 3d c0 fe 1d bb
       -0.15090737 -0.20728412 0.055181846 -0.0024108142
0002d0 90 b6 65 3c 63 4a f8 bd e9 cb 3e be db 82 2f 3e
       0.014020577 -0.12123563 -0.18632473 0.17139761
0002e0 b6 2c 94 3d ac f8 21 3d 98 10 93 3c d1 8b 03 3e
       0.072350904 0.039543793 0.017952248 0.12846304
0002f0 ac 0f 47 3d e5 21 02 3e ac 83 b1 bd e9 52 2e 3e
       0.04859893 0.12708242 -0.086676925 0.17023815
000300 0d ee 38 3e a4 f0 47 be 55 58 33 3e 32 d8 ae 3d
       0.18059559 -0.19525391 0.17514165 0.0853733
000310 72 db 56 be ab 28 2a 3e e9 ca 05 3e ec ac 74 bd
       -0.20982149 0.16617076 0.13065685 -0.059735224
000320 d4 f7 7b bd 20 03 ed bd 40 a2 59 3c 5e dd e6 3d
       -0.061515644 -0.11572862 0.013283312 0.11272691
000330 43 5f 1c 3e c0 13 16 bc 3a 3d 8a 3d 9a e7 fe 3d
       0.15270714 -0.009159982 0.06749959 0.12446518
000340 2b 9b 0d 3e a8 aa 00 be 90 1d de bc 40 17 06 be
       0.13828723 -0.125651 -0.027113706 -0.13094807
000350 94 81 26 be 6a 7e 93 3d 8b 09 15 3e e9 d1 34 3e
       -0.16260368 0.07201846 0.14554422 0.176582
000360 11 c2 3b 3e 88 7c 00 3d 45 23 3b be ec fc 43 3d
       0.18335749 0.031368762 -0.18275173 0.047848627
000370 0e 66 88 3d b0 d0 cf bc 49 71 43 3e a3 b4 47 3e
       0.066600904 -0.025368065 0.19086184 0.19502501
000380 6f bd 4e 3e 46 d9 cb 3d 4c 39 07 bd a0 43 6c 3c
       0.2018945 0.09953551 -0.033013627 0.01442042
000390 a6 75 b5 3d 8a 89 02 be 27 34 12 3e c7 e9 1e 3e
       0.0886033 -0.1274778 0.14277707 0.15518866
0003a0 d8 4a 2a be 29 7e 30 3e b4 34 78 3d f0 91 fc bc
       -0.16630113 0.17235626 0.060597137 -0.030831307
0003b0 00 0a 8e 3a c0 28 71 bc f8 f6 b2 bc 61 a5 46 3e
       0.001083672 -0.014719188 -0.02184628 0.19399025
0003c0 3c b3 31 be a2 27 b4 bd 49 0f 4b be a0 b2 67 3c
       -0.17353529 -0.08796622 -0.1983005 0.014141709
0003d0 1e 40 11 be bf 68 1c be aa 8f a7 3d 88 76 c9 3c
       -0.14184615 -0.15274332 0.081816986 0.024592653
0003e0 91 75 55 3e 42 b6 85 3d e6 24 e6 3d be 76 84 3d
       0.2084563 0.065289035 0.112375066 0.06467961
0003f0 c0 d7 8d bd 92 6c 33 be a0 85 86 bd f2 16 b5 3d
       -0.06925917 -0.17521885 -0.06568456 0.08842267

sequential_1/dense_4/MatMul f4 [64, 128]
000000 90 50 50 bc 68 71 ab 3c d0 8b 22 bc 6f eb aa bd
       -0.01271452 0.0209281 -0.009921029 -0.08345687
000010 2c f1 2d 3d bc de 15 3d 4a 2c ef bd 44 0e 71 bd
       0.042466328 0.03658937 -0.11678369 -0.058851495
000020 18 ae 50 3d 1f 3c 2d 3e 84 a4 8a 3d 96 e7 31 be
       0.05094728 0.16917466 0.0676966 -0.173735
000030 3f 4c 33 3e f0 5b 68 3d eb d7 0a 3e 3a e6 1e be
       0.17509554 0.056728303 0.13558929 -0.15517512
000040 e6 09 e9 3d fe f4 c2 3d df fb 0f 3e 4d 94 18 3e
       0.11378841 0.09519385 0.14060925 0.14900322
000050 ec f9 72 3d 56 97 6d bd 80 1a 28 3b ec b5 07 bd
       0.059320375 -0.058005653 0.002565056 -0.03313248
000060 c7 3c 18 3e a0 48 a1 bb 2d 6a 8f bd 90 db 77 bd
       0.14866935 -0.0049219877 -0.07002673 -0.060512125
000070 67 eb c5 bd f8 03 10 3d 67 59 09 3e 3f 99 1f 3e
       -0.0966404 0.035160035 0.1341301 0.15585802
000080 ee cb ba 3d 5c af d3 bd 52 a7 a3 3d ca 3d 81 3d
       0.09120928 -0.103361815 0.07990898 0.063106135
000090 8f 45 18 be a4 ac 04 3d 52 74 ec 3d 8c 2e 1b bd
       -0.14870284 0.032391205 0.11545624 -0.037886187
0000a0 b2 5d 5f bd 1a a1 84 3d 58 ce 74 3d 80 01 06 bd
       -0.054532714 0.0647604 0.059767097 -0.032716274
0000b0 c0 d2 6c bb 0e fc b6 3d 51 a4 0e 3e 68 62 91 3d
       -0.003613636 0.08934794 0.13929869 0.07098848
0000c0 f3 ad e7 bd e1 57 13 3e 00 27 e8 3a 33 ce 0b 3e
       -0.11312475 0.14388992 0.0017711818 0.13652878
0000d0 2d 35 f2 bd 56 3f 8e bd a0 85 5d 3c b4 13 15 bd
       -0.11826549 -0.06945674 0.013520628 -0.036395743
0000e0 bf 40 ac bd 90 26 80 bc 5b 44 05 be b6 58 ed 3d
       -0.08410787 -0.015643388 -0.13014357 0.11589186
0000f0 80 70 02 bb c5 a6 32 3e 61 0e ae bd 2a 18 6e bd
       -0.001990348 0.1744643 -0.08498836 -0.058128513
000100 8f 41 01 3e 68 4b 20 be 94 ff 48 bd 84 0f 2d bd
       0.12622665 -0.15653765 -0.049071863 -0.042251125
000110 d3 bd 12 3e 63 b9 1d be 49 f7 16 be 6d 39 29 be
       0.14330225 -0.1540275 -0.1474277 -0.16525812
000120 49 eb 0a 3e ac b0 e2 bd b6 02 fe bd 2e 1a fa 3d
       0.13566317 -0.11068854 -0.12402861 0.12212025
000130 b3 5d 0f 3e 40 ef 0a 3d 7b d6 1f 3e 49 55 26 3e
       0.14000587 0.033919573 0.15609162 0.16243471
000140 f3 f7 2d 3e e6 7d fd 3d 25 bc 01 3e da 6b d3 3d
       0.16989116 0.12377529 0.12669428 0.103233054
000150 28 26 85 bc 92 31 d0 3d d4 3f 11 bd d8 90 63 3d
       -0.016253546 0.10165705 -0.035461262 0.055558056
000160 70 f9 0d 3c cf 8c 08 3e 50 5f ba bc 3c e7 c4 bd
       0.008665428 0.13334964 -0.022750527 -0.09614417
000170 5f 7d e5 bd 2f 5a 23 3e c0 56 71 3c d8 2b 94 3c
       -0.11205553 0.15952371 0.0147301555 0.018087313
000180 74 a6 4b 3d 00 b7 ee 3a 5d eb b8 bd 59 18 21 3e
       0.04971929 0.0018212497 -0.09029267 0.15731944
000190 12 c4 b0 bd dc 9e 0f bd d0 65 47 3d 68 e0 e9 bc
       -0.086311474 -0.03506361 0.04868108 -0.028549388
0001a0 c0 cb a8 bc 96 50 8b 3d c4 07 6e bd 60 33 16 bc
       -0.020604968 0.0680248 -0.058112875 -0.009167522
0001b0 4e 98 9d 3d 20 e8 11 bd 5e 05 d3 bd b5 82 28 be
       0.076950654 -0.035621762 -0.10303758 -0.16456111
0001c0 6c 28 12 3d a0 b1 d5 3b 20 02 99 3b 38 19 ae bc
       0.03568308 0.0065214187 0.004669443 -0.02125226
0001d0 f8 e8 6d 3d e0 da 28 bc cc 88 09 3d c6 b2 c0 bd
       0.058083504 -0.01030609 0.033577725 -0.09409098
0001e0 b6 84 d3 bd 0a 49 09 be f6 3f f1 3d e0 bd a1 3c
       -0.10328047 -0.13406768 0.11779778 0.01974386
0001f0 a2 7f f7 3d f0 00 1e be 8c dc 2c 3d 80 2c 79 3d
       0.12084891 -0.15430045 0.042202517 0.060833454
000200 87 41 c8 bd b8 60 b7 bc c1 06 32 be b8 7d 6b 3d
       -0.09778123 -0.022384986 -0.17385389 0.05749294
000210 0e 35 d2 3d e2 c9 b4 bd 28 fc 66 3d 54 db fe bd
       0.10264026 -0.088275686 0.05639282 -0.12444177
000220 6b 2f 31 3e 5a 25 c3 3d 86 f3 95 bd c0 7e e3 bb
       0.17303245 0.095286086 -0.07321839 -0.0069426
000230 0b c2 1a 3e e7 35 ab bd 3a 04 1f be 46 99 fa 3d
       0.15113084 -0.083598904 -0.15528956 0.12236266
000240 8c 0d 70 3d f2 45 f7 3d 40 6e 5d 3c d8 7f 87 bc
       0.05860667 0.12073888 0.013515055 -0.016540453
000250 87 0f 13 3e eb 57 1f 3e f4 3c d5 bd dc ae 93 3d
       0.14361392 0.15560882 -0.104120165 0.07211086
000260 f6 b2 94 3d 11 90 34 3e c6 1f b1 3d f0 d1 59 3c
       0.072606966 0.17633082 0.086486384 0.013294682
000270 88 9d 19 be 80 ff 13 3c 78 7c ec bd 1e 8d d0 3d
       -0.150015 0.009033084 -0.11547178 0.10183166
000280 e2 65 f2 3d 82 f9 cb 3d 0c 2c 0f 3d 5e cb f3 bd
       0.11835839 0.09959699 0.034954116 -0.119040236
000290 40 e8 ea bb d1 72 87 bd 8d cd 02 3e 95 fd 20 3e
       -0.0071687996 -0.06613696 0.12773724 0.15721734
0002a0 b8 d0 87 3c a0 01 fc 3b e4 d5 25 bd ee 15 da 3d
       0.016579017 0.0076906234 -0.040487185 0.10648714
0002b0 f9 94 2e 3e 34 5b 27 be 5a 51 e4 3d 10 57 9b bc
       0.17049016 -0.16343385 0.11148329 -0.018962413
0002c0 00 3f e8 bb 98 d6 69 3d 20 23 a7 bc ec 56 22 3d
       -0.0070875883 0.05708942 -0.020402491 0.039633676
0002d0 3d 98 28 be 4e 30 e6 3d db 62 12 3e 30 9e 69 bc
       -0.16464324 0.11239682 0.14295523 -0.014258906
0002e0 c8 69 07 bd f4 2d e9 bd fe c8 16 be fa c4 9b 3d
       -0.033059865 -0.11385718 -0.1472511 0.0760593
0002f0 2a 85 16 be db eb 06 3e 83 5b 05 3e be 63 cc 3d
       -0.14699236 0.13175909 0.1302319 0.09979962
000300 6d 47 18 be 50 50 43 bd a2 cd e8 bd 73 e9 12 3e
       -0.14870997 -0.047684014 -0.11367346 0.14346866
000310 6a 89 02 be f9 ee 21 3e db 0c 1b 3e bf e6 31 3e
       -0.12747732 0.15813817 0.15141623 0.17373179
000320 a0 6f ed bd 33 60 8d bd b9 9d 2a 3e a0 34 6e bd
       -0.115935564 -0.06903114 0.16661729 -0.058155656
000330 a5 a5 1b 3e 76 36 e9 bd 7d fe ad bd 68 f1 24 bd
       0.15199907 -0.11387341 -0.084958054 -0.040269285
000340 b0 bd 0b 3d 84 d3 45 3d 7e aa 2a be 9b 14 13 be
       0.034116447 0.04829742 -0.166666 -0.14363329
000350 31 ed 28 3e ef 62 14 3e f4 ac 3e 3d a8 59 00 3d
       0.16496731 0.14490865 0.04655166 0.031335503
000360 f8 90 17 be 70 7d f8 3c 06 80 a9 3d be 17 de 3d
       -0.14801395 0.03033325 0.08276372 0.10844372
000370 b2 ed f0 3d 3b c5 06 be 9c 58 6c bd 57 c9 30 be
       0.11764087 -0.13161175 -0.057701692 -0.17264305
000380 ce 49 07 be f0 85 7b bd 14 9c 15 bd e0 55 43 3c
       -0.13211748 -0.06140703 -0.0365258 0.01192233
000390 76 f5 fc 3d c2 bc bb 3d 79 bd 05 3e d2 f3 8f bd
       0.123515055 0.09166862 0.1306056 -0.07028927
0003a0 7e 50 b2 bd 82 6f 34 be f8 97 49 3d 02 fa 82 3d
       -0.08706759 -0.17620662 0.049217194 0.063953415
0003b0 e0 dc 1e 3c bc 25 f5 bd 5d 82 d0 bd 28 4a 88 3c
       0.009696215 -0.11970088 -0.10181115 0.016636923
0003c0 f3 52 03 3e 2c 17 95 bd e8 cf e8 bc c0 de 7f bd
       0.12824611 -0.0727981 -0.02841945 -0.06246829
0003d0 8c 58 27 3d 46 77 95 3d 16 8e b8 3d a0 fe f3 3c
       0.04085593 0.0729814 0.09011476 0.0297845
0003e0 07 8d 08 3e 5e 6a 34 be 56 e4 b4 3d 60 12 05 3d
       0.13335048 -0.17618701 0.08832614 0.032488227
0003f0 42 bf 29 be fb b1 2a 3e 08 5f 02 be 2e a7 c0 3d
       -0.16576865 0.16669457 -0.12731564 0.09406887

sequential_1/dense_5/MatMul f4 [1, 64]
000000 04 bd 7e 3e 70 85 f0 bd 7a 94 0a 3e 68 7a 31 be
       0.24876791 -0.11744201 0.13533202 -0.1733185
000010 0c bc 79 be d4 5e 76 3e 98 7f 28 3e c4 d7 98 be
       -0.2438814 0.24059612 0.16454923 -0.29852116
000020 a8 fb 53 3e 6e df be bd 70 85 96 3c 40 a6 b5 bb
       0.20701468 -0.093199596 0.018374175 -0.0055435
000030 84 b9 81 be f4 97 55 3e e3 fd 86 be 2c b5 d2 3d
       -0.2533685 0.20858747 -0.26365575 0.10288462
000040 b4 55 c5 3d e1 57 0c be e8 60 56 be 66 2b 71 be
       0.09635487 -0.13705398 -0.20935404 -0.23551711
000050 64 73 59 3e f4 d0 0f 3e c0 f5 8e 3c 1b b7 92 be
       0.21235424 0.14044553 0.017451167 -0.28655323
000060 b8 a6 f2 bd 78 32 0c 3e b2 db 57 be b4 49 95 3d
       -0.11848205 0.13691127 -0.21079901 0.072894484
000070 ec 86 03 3e 94 84 96 be 30 bb 49 3e e0 e2 de 3d
       0.12844437 -0.29398024 0.19700313 0.10883117
000080 00 39 fa 3c 8e bd 5d be 89 1e 89 be 38 3e 63 3e
       0.030544758 -0.2165434 -0.2678111 0.22191703
000090 f8 c2 7c 3e 74 4e 09 3e a0 fd 6a bd b6 8d 80 3e
       0.2468375 0.13408834 -0.057370782 0.25108117
0000a0 38 ca 67 be ac 38 76 3e a8 79 39 3d a9 28 0d be
       -0.22635734 0.24045056 0.045282036 -0.13785042
0000b0 cc a2 1e be be c1 8c be a8 fa c6 3d 78 83 1c be
       -0.1549179 -0.27491564 0.09715778 -0.15284526
0000c0 1c 46 6d 3e 30 d3 b4 3c 9e c6 43 3e 18 a6 10 3d
       0.23171276 0.022073358 0.19118735 0.03531465
0000d0 34 e0 4e be 4e 5b 81 be e0 7f c2 bd 70 c1 6c 3e
       -0.20202714 -0.25264972 -0.094970465 0.23120666
0000e0 f0 41 8d 3e e0 13 d0 bc 34 37 5f be d0 e9 4f 3e
       0.2758937 -0.025400102 -0.21798402 0.20304036
0000f0 00 0c 7b 3b 46 04 3a 3e b8 72 e7 3d 73 19 81 be
       0.0038306713 0.18165693 0.11301178 -0.2521473
